…
==========================================================================================================\nLayer (type:depth-idx)                   Input Shape               Output Shape              Param #                   Param %                   Kernel Shape              Mult-Adds                 Trainable\n=======================================================================================================================================================================================================================\nResNet                                   [1, 3, 100, 100]          [1, 10]                   --                             --                   --                        --                        True\n├─Conv2d: 1-1                            [1, 3, 100, 100]          [1, 64, 50, 50]           9,408                       0.04%                   [7, 7]                    23,520,000                True\n├─BatchNorm2d: 1-2                       [1, 64, 50, 50]           [1, 64, 50, 50]           128                         0.00%                   --                        128                       True\n├─ReLU: 1-3                              [1, 64, 50, 50]           [1, 64, 50, 50]           --                             --                   --                        --                        --\n├─MaxPool2d: 1-4                         [1, 64, 50, 50]           [1, 64, 25, 25]           --                             --                   3                         --                        --\n├─Sequential: 1-5                        [1, 64, 25, 25]           [1, 256, 25, 25]          --                             --                   --                        --                        True\n│    └─Bottleneck: 2-1                   [1, 64, 25, 25]           [1, 256, 25, 25]          --                             --                   --                        --                        True\n│    │    └─Conv2d: 3-1                  [1, 64, 25, 25]           [1, 64, 25, 25]           4,096                       0.02%                   [1, 1]                    2,560,000                 True\n│    │    └─BatchNorm2d: 3-2             [1, 64, 25, 25]           [1, 64, 25, 25]           128                         0.00%                   --                        128                       True\n│    │    └─ReLU: 3-3                    [1, 64, 25, 25]           [1, 64, 25, 25]           --                             --                   --                        --                        --\n│    │    └─Conv2d: 3-4                  [1, 64, 25, 25]           [1, 64, 25, 25]           36,864                      0.16%                   [3, 3]                    23,040,000                True\n│    │    └─BatchNorm2d: 3-5             [1, 64, 25, 25]           [1, 64, 25, 25]           128                         0.00%                   --                        128                       True\n│    │    └─Identity: 3-6                [1, 64, 25, 25]           [1, 64, 25, 25]           --                             --                   --                        --                        --\n│    │    └─ReLU: 3-7                    [1, 64, 25, 25]           [1, 64, 25, 25]           --                             --                   --                        --                        --\n│    │    └─Identity: 3-8                [1, 64, 25, 25]           [1, 64, 25, 25]           --                             --                   --                        --                        --\n│    │    └─Conv2d: 3-9                  [1, 64, 25, 25]           [1, 256, 25, 25]          16,384                      0.07%                   [1, 1]                    10,240,000                True\n│    │    └─BatchNorm2d: 3-10            [1, 256, 25, 25]          [1, 256, 25, 25]          512                         0.00%                   --                        512                       True\n│    │    └─Sequential: 3-11             [1, 64, 25, 25]           [1, 256, 25, 25]          --                             --                   --                        --                        True\n│    │    │    └─Conv2d: 4-1             [1, 64, 25, 25]           [1, 256, 25, 25]          16,384                      0.07%                   [1, 1]                    10,240,000                True\n│    │    │    └─BatchNorm2d: 4-2        [1, 256, 25, 25]          [1, 256, 25, 25]          512                         0.00%                   --                        512                       True\n│    │    └─ReLU: 3-12                   [1, 256, 25, 25]          [1, 256, 25, 25]          --                             --                   --                        --                        --\n│    └─Bottleneck: 2-2                   [1, 256, 25, 25]          [1, 256, 25, 25]          --                             --                   --                        --                        True\n│    │    └─Conv2d: 3-13                 [1, 256, 25, 25]          [1, 64, 25, 25]           16,384                      0.07%                   [1, 1]                    10,240,000                True\n│    │    └─BatchNorm2d: 3-14            [1, 64, 25, 25]           [1, 64, 25, 25]           128                         0.00%                   --                        128                       True\n│    │    └─ReLU: 3-15                   [1, 64, 25, 25]           [1, 64, 25, 25]           --                             --                   --                        --                        --\n│    │    └─Conv2d: 3-16                 [1, 64, 25, 25]           [1, 64, 25, 25]           36,864                      0.16%                   [3, 3]                    23,040,000                True\n│    │    └─BatchNorm2d: 3-17            [1, 64, 25, 25]           [1, 64, 25, 25]           128                         0.00%                   --                        128                       True\n│    │    └─Identity: 3-18               [1, 64, 25, 25]           [1, 64, 25, 25]           --                             --                   --                        --                        --\n│    │    └─ReLU: 3-19                   [1, 64, 25, 25]           [1, 64, 25, 25]           --                             --                   --                        --                        --\n│    │    └─Identity: 3-20               [1, 64, 25, 25]           [1, 64, 25, 25]           --                             --                   --                        --                        --\n│    │    └─Conv2d: 3-21                 [1, 64, 25, 25]           [1, 256, 25, 25]          16,384                      0.07%                   [1, 1]                    10,240,000                True\n│    │    └─BatchNorm2d: 3-22            [1, 256, 25, 25]          [1, 256, 25, 25]          512                         0.00%                   --                        512                       True\n│    │    └─ReLU: 3-23                   [1, 256, 25, 25]          [1, 256, 25, 25]          --                             --                   --                        --                        --\n│    └─Bottleneck: 2-3                   [1, 256, 25, 25]          [1, 256, 25, 25]          --                             --                   --                        --                        True\n│    │    └─Conv2d: 3-24                 [1, 256, 25, 25]          [1, 64, 25, 25]           16,384                      0.07%                   [1, 1]                    10,240,000                True\n│    │    └─BatchNorm2d: 3-25            [1, 64, 25, 25]           [1, 64, 25, 25]           128                         0.00%                   --                        128                       True\n│    │    └─ReLU: 3-26                   [1, 64, 25, 25]           [1, 64, 25, 25]           --                             --                   --                        --                        --\n│    │    └─Conv2d: 3-27                 [1, 64, 25, 25]           [1, 64, 25, 25]           36,864                      0.16%                   [3, 3]                    23,040,000                True\n│    │    └─BatchNorm2d: 3-28            [1, 64, 25, 25]           [1, 64, 25, 25]           128                         0.00%                   --                        128                       True\n│    │    └─Identity: 3-29               [1, 64, 25, 25]           [1, 64, 25, 25]           --                             --                   --                        --                        --\n│    │    └─ReLU: 3-30                   [1, 64, 25, 25]           [1, 64, 25, 25]           --                             --                   --                        --                        --\n│    │    └─Identity: 3-31               [1, 64, 25, 25]           [1, 64, 25, 25]           --                             --                   --                        --                        --\n│    │    └─Conv2d: 3-32                 [1, 64, 25, 25]           [1, 256, 25, 25]          16,384                      0.07%                   [1, 1]                    10,240,000                True\n│    │    └─BatchNorm2d: 3-33            [1, 256, 25, 25]          [1, 256, 25, 25]          512                         0.00%                   --                        512                       True\n│    │    └─ReLU: 3-34                   [1, 256, 25, 25]          [1, 256, 25, 25]          --                             --                   --                        --                        --\n├─Sequential: 1-6                        [1, 256, 25, 25]          [1, 512, 13, 13]          --                             --                   --                        --                        True\n│    └─Bottleneck: 2-4                   [1, 256, 25, 25]          [1, 512, 13, 13]          --                             --                   --                        --                        True\n│    │    └─Conv2d: 3-35                 [1, 256, 25, 25]          [1, 128, 25, 25]          32,768                      0.14%                   [1, 1]                    20,480,000                True\n│    │    └─BatchNorm2d: 3-36            [1, 128, 25, 25]          [1, 128, 25, 25]          256                         0.00%                   --                        256                       True\n│    │    └─ReLU: 3-37                   [1, 128, 25, 25]          [1, 128, 25, 25]          --                             --                   --                        --                        --\n│    │    └─Conv2d: 3-38                 [1, 128, 25, 25]          [1, 128, 13, 13]          147,456                     0.63%                   [3, 3]                    24,920,064                True\n│    │    └─BatchNorm2d: 3-39            [1, 128, 13, 13]          [1, 128, 13, 13]          256                         0.00%                   --                        256                       True\n│    │    └─Identity: 3-40               [1, 128, 13, 13]          [1, 128, 13, 13]          --                             --                   --                        --                        --\n│    │    └─ReLU: 3-41                   [1, 128, 13, 13]          [1, 128, 13, 13]          --                             --                   --                        --                        --\n│    │    └─Identity: 3-42               [1, 128, 13, 13]          [1, 128, 13, 13]          --                             --                   --                        --                        --\n│    │    └─Conv2d: 3-43                 [1, 128, 13, 13]          [1, 512, 13, 13]          65,536                      0.28%                   [1, 1]                    11,075,584                True\n│    │    └─BatchNorm2d: 3-44            [1, 512, 13, 13]          [1, 512, 13, 13]          1,024                       0.00%                   --                        1,024                     True\n│    │    └─Sequential: 3-45             [1, 256, 25, 25]          [1, 512, 13, 13]          --                             --                   --                        --                        True\n│    │    │    └─Conv2d: 4-3             [1, 256, 25, 25]          [1, 512, 13, 13]          131,072                     0.56%                   [1, 1]                    22,151,168                True\n│    │    │    └─BatchNorm2d: 4-4        [1, 512, 13, 13]          [1, 512, 13, 13]          1,024                       0.00%                   --                        1,024                     True\n│    │    └─ReLU: 3-46                   [1, 512, 13, 13]          [1, 512, 13, 13]          --                             --                   --                        --                        --\n│    └─Bottleneck: 2-5                   [1, 512, 13, 13]          [1, 512, 13, 13]          --                             --                   --                        --                        True\n│    │    └─Conv2d: 3-47                 [1, 512, 13, 13]          [1, 128, 13, 13]          65,536                      0.28%                   [1, 1]                    11,075,584                True\n│    │    └─BatchNorm2d: 3-48            [1, 128, 13, 13]          [1, 128, 13, 13]          256                         0.00%                   --                        256                       True\n│    │    └─ReLU: 3-49                   [1, 128, 13, 13]          [1, 128, 13, 13]          --                             --                   --                        --                        --\n│    │    └─Conv2d: 3-50                 [1, 128, 13, 13]          [1, 128, 13, 13]          147,456                     0.63%                   [3, 3]                    24,920,064                True\n│    │    └─BatchNorm2d: 3-51            [1, 128, 13, 13]          [1, 128, 13, 13]          256                         0.00%                   --                        256                       True\n│    │    └─Identity: 3-52               [1, 128, 13, 13]          [1, 128, 13, 13]          --                             --                   --                        --                        --\n│    │    └─ReLU: 3-53                   [1, 128, 13, 13]          [1, 128, 13, 13]          --                             --                   --                        --                        --\n│    │    └─Identity: 3-54               [1, 128, 13, 13]          [1, 128, 13, 13]          --                             --                   --                        --                        --\n│    │    └─Conv2d: 3-55                 [1, 128, 13, 13]          [1, 512, 13, 13]          65,536                      0.28%                   [1, 1]                    11,075,584                True\n│    │    └─BatchNorm2d: 3-56            [1, 512, 13, 13]          [1, 512, 13, 13]          1,024                       0.00%                   --                        1,024                     True\n│    │    └─ReLU: 3-57                   [1, 512, 13, 13]          [1, 512, 13, 13]          --                             --                   --                        --                        --\n│    └─Bottleneck: 2-6                   [1, 512, 13, 13]          [1, 512, 13, 13]          --                             --                   --                        --                        True\n│    │    └─Conv2d: 3-58                 [1, 512, 13, 13]          [1, 128, 13, 13]          65,536                      0.28%                   [1, 1]                    11,075,584                True\n│    │    └─BatchNorm2d: 3-59            [1, 128, 13, 13]          [1, 128, 13, 13]          256                         0.00%                   --                        256                       True\n│    │    └─ReLU: 3-60                   [1, 128, 13, 13]          [1, 128, 13, 13]          --                             --                   --                        --                        --\n│    │    └─Conv2d: 3-61                 [1, 128, 13, 13]          [1, 128, 13, 13]          147,456                     0.63%                   [3, 3]                    24,920,064                True\n│    │    └─BatchNorm2d: 3-62            [1, 128, 13, 13]          [1, 128, 13, 13]          256                         0.00%                   --                        256                       True\n│    │    └─Identity: 3-63               [1, 128, 13, 13]          [1, 128, 13, 13]          --                             --                   --                        --                        --\n│    │    └─ReLU: 3-64                   [1, 128, 13, 13]          [1, 128, 13, 13]          --                             --                   --                        --                        --\n│    │    └─Identity: 3-65               [1, 128, 13, 13]          [1, 128, 13, 13]          --                             --                   --                        --                        --\n│    │    └─Conv2d: 3-66                 [1, 128, 13, 13]          [1, 512, 13, 13]          65,536                      0.28%                   [1, 1]                    11,075,584                True\n│    │    └─BatchNorm2d: 3-67            [1, 512, 13, 13]          [1, 512, 13, 13]          1,024                       0.00%                   --                        1,024                     True\n│    │    └─ReLU: 3-68                   [1, 512, 13, 13]          [1, 512, 13, 13]          --                             --                   --                        --                        --\n│    └─Bottleneck: 2-7                   [1, 512, 13, 13]          [1, 512, 13, 13]          --                             --                   --                        --                        True\n│    │    └─Conv2d: 3-69                 [1, 512, 13, 13]          [1, 128, 13, 13]          65,536                      0.28%                   [1, 1]                    11,075,584                True\n│    │    └─BatchNorm2d: 3-70            [1, 128, 13, 13]          [1, 128, 13, 13]          256                         0.00%                   --                        256                       True\n│    │    └─ReLU: 3-71                   [1, 128, 13, 13]          [1, 128, 13, 13]          --                             --                   --                        --                        --\n│    │    └─Conv2d: 3-72                 [1, 128, 13, 13]          [1, 128, 13, 13]          147,456                     0.63%                   [3, 3]                    24,920,064                True\n│    │    └─BatchNorm2d: 3-73            [1, 128, 13, 13]          [1, 128, 13, 13]          256                         0.00%                   --                        256                       True\n│    │    └─Identity: 3-74               [1, 128, 13, 13]          [1, 128, 13, 13]          --                             --                   --                        --                        --\n│    │    └─ReLU: 3-75                   [1, 128, 13, 13]          [1, 128, 13, 13]          --                             --                   --                        --                        --\n│    │    └─Identity: 3-76               [1, 128, 13, 13]          [1, 128, 13, 13]          --                             --                   --                        --                        --\n│    │    └─Conv2d: 3-77                 [1, 128, 13, 13]          [1, 512, 13, 13]          65,536                      0.28%                   [1, 1]                    11,075,584                True\n│    │    └─BatchNorm2d: 3-78            [1, 512, 13, 13]          [1, 512, 13, 13]          1,024                       0.00%                   --                        1,024                     True\n│    │    └─ReLU: 3-79                   [1, 512, 13, 13]          [1, 512, 13, 13]          --                             --                   --                        --                        --\n├─Sequential: 1-7                        [1, 512, 13, 13]          [1, 1024, 7, 7]           --                             --                   --                        --                        True\n│    └─Bottleneck: 2-8                   [1, 512, 13, 13]          [1, 1024, 7, 7]           --                             --                   --                        --                        True\n│    │    └─Conv2d: 3-80                 [1, 512, 13, 13]          [1, 256, 13, 13]          131,072                     0.56%                   [1, 1]                    22,151,168                True\n│    │    └─BatchNorm2d: 3-81            [1, 256, 13, 13]          [1, 256, 13, 13]          512                         0.00%                   --                        512                       True\n│    │    └─ReLU: 3-82                   [1, 256, 13, 13]          [1, 256, 13, 13]          --                             --                   --                        --                        --\n│    │    └─Conv2d: 3-83                 [1, 256, 13, 13]          [1, 256, 7, 7]            589,824                     2.51%                   [3, 3]                    28,901,376                True\n│    │    └─BatchNorm2d: 3-84            [1, 256, 7, 7]            [1, 256, 7, 7]            512                         0.00%                   --                        512                       True\n│    │    └─Identity: 3-85               [1, 256, 7, 7]            [1, 256, 7, 7]            --                             --                   --                        --                        --\n│    │    └─ReLU: 3-86                   [1, 256, 7, 7]            [1, 256, 7, 7]            --                             --                   --                        --                        --\n│    │    └─Identity: 3-87               [1, 256, 7, 7]            [1, 256, 7, 7]            --                             --                   --                        --                        --\n│    │    └─Conv2d: 3-88                 [1, 256, 7, 7]            [1, 1024, 7, 7]           262,144                     1.11%                   [1, 1]                    12,845,056                True\n│    │    └─BatchNorm2d: 3-89            [1, 1024, 7, 7]           [1, 1024, 7, 7]           2,048                       0.01%                   --                        2,048                     True\n│    │    └─Sequential: 3-90             [1, 512, 13, 13]          [1, 1024, 7, 7]           --                             --                   --                        --                        True\n│    │    │    └─Conv2d: 4-5             [1, 512, 13, 13]          [1, 1024, 7, 7]           524,288                     2.23%                   [1, 1]                    25,690,112                True\n│    │    │    └─BatchNorm2d: 4-6        [1, 1024, 7, 7]           [1, 1024, 7, 7]           2,048                       0.01%                   --                        2,048                     True\n│    │    └─ReLU: 3-91                   [1, 1024, 7, 7]           [1, 1024, 7, 7]           --                             --                   --                        --                        --\n│    └─Bottleneck: 2-9                   [1, 1024, 7, 7]           [1, 1024, 7, 7]           --                             --                   --                        --                        True\n│    │    └─Conv2d: 3-92                 [1, 1024, 7, 7]           [1, 256, 7, 7]            262,144                     1.11%                   [1, 1]                    12,845,056                True\n│    │    └─BatchNorm2d: 3-93            [1, 256, 7, 7]            [1, 256, 7, 7]            512                         0.00%                   --                        512                       True\n│    │    └─ReLU: 3-94                   [1, 256, 7, 7]            [1, 256, 7, 7]            --                             --                   --                        --                        --\n│    │    └─Conv2d: 3-95                 [1, 256, 7, 7]            [1, 256, 7, 7]            589,824                     2.51%                   [3, 3]                    28,901,376                True\n│    │    └─BatchNorm2d: 3-96            [1, 256, 7, 7]            [1, 256, 7, 7]            512                         0.00%                   --                        512                       True\n│    │    └─Identity: 3-97               [1, 256, 7, 7]            [1, 256, 7, 7]            --                             --                   --                        --                        --\n│    │    └─ReLU: 3-98                   [1, 256, 7, 7]            [1, 256, 7, 7]            --                             --                   --                        --                        --\n│    │    └─Identity: 3-99               [1, 256, 7, 7]            [1, 256, 7, 7]            --                             --                   --                        --                        --\n│    │    └─Conv2d: 3-100                [1, 256, 7, 7]            [1, 1024, 7, 7]           262,144                     1.11%                   [1, 1]                    12,845,056                True\n│    │    └─BatchNorm2d: 3-101           [1, 1024, 7, 7]           [1, 1024, 7, 7]           2,048                       0.01%                   --                        2,048                     True\n│    │    └─ReLU: 3-102                  [1, 1024, 7, 7]           [1, 1024, 7, 7]           --                             --                   --                        --                        --\n│    └─Bottleneck: 2-10                  [1, 1024, 7, 7]           [1, 1024, 7, 7]           --                             --                   --                        --                        True\n│    │    └─Conv2d: 3-103                [1, 1024, 7, 7]           [1, 256, 7, 7]            262,144                     1.11%                   [1, 1]                    12,845,056                True\n│    │    └─BatchNorm2d: 3-104           [1, 256, 7, 7]            [1, 256, 7, 7]            512                         0.00%                   --                        512                       True\n│    │    └─ReLU: 3-105                  [1, 256, 7, 7]            [1, 256, 7, 7]            --                             --                   --                        --                        --\n│    │    └─Conv2d: 3-106                [1, 256, 7, 7]            [1, 256, 7, 7]            589,824                     2.51%                   [3, 3]                    28,901,376                True\n│    │    └─BatchNorm2d: 3-107           [1, 256, 7, 7]            [1, 256, 7, 7]            512                         0.00%                   --                        512                       True\n│    │    └─Identity: 3-108              [1, 256, 7, 7]            [1, 256, 7, 7]            --                             --                   --                        --                        --\n│    │    └─ReLU: 3-109                  [1, 256, 7, 7]            [1, 256, 7, 7]            --                             --                   --                        --                        --\n│    │    └─Identity: 3-110              [1, 256, 7, 7]            [1, 256, 7, 7]            --                             --                   --                        --                        --\n│    │    └─Conv2d: 3-111                [1, 256, 7, 7]            [1, 1024, 7, 7]           262,144                     1.11%                   [1, 1]                    12,845,056                True\n│    │    └─BatchNorm2d: 3-112           [1, 1024, 7, 7]           [1, 1024, 7, 7]           2,048                       0.01%                   --                        2,048                     True\n│    │    └─ReLU: 3-113                  [1, 1024, 7, 7]           [1, 1024, 7, 7]           --                             --                   --                        --                        --\n│    └─Bottleneck: 2-11                  [1, 1024, 7, 7]           [1, 1024, 7, 7]           --                             --                   --                        --                        True\n│    │    └─Conv2d: 3-114                [1, 1024, 7, 7]           [1, 256, 7, 7]            262,144                     1.11%                   [1, 1]                    12,845,056                True\n│    │    └─BatchNorm2d: 3-115           [1, 256, 7, 7]            [1, 256, 7, 7]            512                         0.00%                   --                        512                       True\n│    │    └─ReLU: 3-116                  [1, 256, 7, 7]            [1, 256, 7, 7]            --                             --                   --                        --                        --\n│    │    └─Conv2d: 3-117                [1, 256, 7, 7]            [1, 256, 7, 7]            589,824                     2.51%                   [3, 3]                    28,901,376                True\n│    │    └─BatchNorm2d: 3-118           [1, 256, 7, 7]            [1, 256, 7, 7]            512                         0.00%                   --                        512                       True\n│    │    └─Identity: 3-119              [1, 256, 7, 7]            [1, 256, 7, 7]            --                             --                   --                        --                        --\n│    │    └─ReLU: 3-120                  [1, 256, 7, 7]            [1, 256, 7, 7]            --                             --                   --                        --                        --\n│    │    └─Identity: 3-121              [1, 256, 7, 7]            [1, 256, 7, 7]            --                             --                   --                        --                        --\n│    │    └─Conv2d: 3-122                [1, 256, 7, 7]            [1, 1024, 7, 7]           262,144                     1.11%                   [1, 1]                    12,845,056                True\n│    │    └─BatchNorm2d: 3-123           [1, 1024, 7, 7]           [1, 1024, 7, 7]           2,048                       0.01%                   --                        2,048                     True\n│    │    └─ReLU: 3-124                  [1, 1024, 7, 7]           [1, 1024, 7, 7]           --                             --                   --                        --                        --\n│    └─Bottleneck: 2-12                  [1, 1024, 7, 7]           [1, 1024, 7, 7]           --                             --                   --                        --                        True\n│    │    └─Conv2d: 3-125                [1, 1024, 7, 7]           [1, 256, 7, 7]            262,144                     1.11%                   [1, 1]                    12,845,056                True\n│    │    └─BatchNorm2d: 3-126           [1, 256, 7, 7]            [1, 256, 7, 7]            512                         0.00%                   --                        512                       True\n│    │    └─ReLU: 3-127                  [1, 256, 7, 7]            [1, 256, 7, 7]            --                             --                   --                        --                        --\n│    │    └─Conv2d: 3-128                [1, 256, 7, 7]            [1, 256, 7, 7]            589,824                     2.51%                   [3, 3]                    28,901,376                True\n│    │    └─BatchNorm2d: 3-129           [1, 256, 7, 7]            [1, 256, 7, 7]            512                         0.00%                   --                        512                       True\n│    │    └─Identity: 3-130              [1, 256, 7, 7]            [1, 256, 7, 7]            --                             --                   --                        --                        --\n│    │    └─ReLU: 3-131                  [1, 256, 7, 7]            [1, 256, 7, 7]            --                             --                   --                        --                        --\n│    │    └─Identity: 3-132              [1, 256, 7, 7]            [1, 256, 7, 7]            --                             --                   --                        --                        --\n│    │    └─Conv2d: 3-133                [1, 256, 7, 7]            [1, 1024, 7, 7]           262,144                     1.11%                   [1, 1]                    12,845,056                True\n│    │    └─BatchNorm2d: 3-134           [1, 1024, 7, 7]           [1, 1024, 7, 7]           2,048                       0.01%                   --                        2,048                     True\n│    │    └─ReLU: 3-135                  [1, 1024, 7, 7]           [1, 1024, 7, 7]           --                             --                   --                        --                        --\n│    └─Bottleneck: 2-13                  [1, 1024, 7, 7]           [1, 1024, 7, 7]           --                             --                   --                        --                        True\n│    │    └─Conv2d: 3-136                [1, 1024, 7, 7]           [1, 256, 7, 7]            262,144                     1.11%                   [1, 1]                    12,845,056                True\n│    │    └─BatchNorm2d: 3-137           [1, 256, 7, 7]            [1, 256, 7, 7]            512                         0.00%                   --                        512                       True\n│    │    └─ReLU: 3-138                  [1, 256, 7, 7]            [1, 256, 7, 7]            --                             --                   --                        --                        --\n│    │    └─Conv2d: 3-139                [1, 256, 7, 7]            [1, 256, 7, 7]            589,824                     2.51%                   [3, 3]                    28,901,376                True\n│    │    └─BatchNorm2d: 3-140           [1, 256, 7, 7]            [1, 256, 7, 7]            512                         0.00%                   --                        512                       True\n│    │    └─Identity: 3-141              [1, 256, 7, 7]            [1, 256, 7, 7]            --                             --                   --                        --                        --\n│    │    └─ReLU: 3-142                  [1, 256, 7, 7]            [1, 256, 7, 7]            --                             --                   --                        --                        --\n│    │    └─Identity: 3-143              [1, 256, 7, 7]            [1, 256, 7, 7]            --                             --                   --                        --                        --\n│    │    └─Conv2d: 3-144                [1, 256, 7, 7]            [1, 1024, 7, 7]           262,144                     1.11%                   [1, 1]                    12,845,056                True\n│    │    └─BatchNorm2d: 3-145           [1, 1024, 7, 7]           [1, 1024, 7, 7]           2,048                       0.01%                   --                        2,048                     True\n│    │    └─ReLU: 3-146                  [1, 1024, 7, 7]           [1, 1024, 7, 7]           --                             --                   --                        --                        --\n├─Sequential: 1-8                        [1, 1024, 7, 7]           [1, 2048, 4, 4]           --                             --                   --                        --                        True\n│    └─Bottleneck: 2-14                  [1, 1024, 7, 7]           [1, 2048, 4, 4]           --                             --                   --                        --                        True\n│    │    └─Conv2d: 3-147                [1, 1024, 7, 7]           [1, 512, 7, 7]            524,288                     2.23%                   [1, 1]                    25,690,112                True\n│    │    └─BatchNorm2d: 3-148           [1, 512, 7, 7]            [1, 512, 7, 7]            1,024                       0.00%                   --                        1,024                     True\n│    │    └─ReLU: 3-149                  [1, 512, 7, 7]            [1, 512, 7, 7]            --                             --                   --                        --                        --\n│    │    └─Conv2d: 3-150                [1, 512, 7, 7]            [1, 512, 4, 4]            2,359,296                  10.03%                   [3, 3]                    37,748,736                True\n│    │    └─BatchNorm2d: 3-151           [1, 512, 4, 4]            [1, 512, 4, 4]            1,024                       0.00%                   --                        1,024                     True\n│    │    └─Identity: 3-152              [1, 512, 4, 4]            [1, 512, 4, 4]            --                             --                   --                        --                        --\n│    │    └─ReLU: 3-153                  [1, 512, 4, 4]            [1, 512, 4, 4]            --                             --                   --                        --                        --\n│    │    └─Identity: 3-154              [1, 512, 4, 4]            [1, 512, 4, 4]            --                             --                   --                        --                        --\n│    │    └─Conv2d: 3-155                [1, 512, 4, 4]            [1, 2048, 4, 4]           1,048,576                   4.46%                   [1, 1]                    16,777,216                True\n│    │    └─BatchNorm2d: 3-156           [1, 2048, 4, 4]           [1, 2048, 4, 4]           4,096                       0.02%                   --                        4,096                     True\n│    │    └─Sequential: 3-157            [1, 1024, 7, 7]           [1, 2048, 4, 4]           --                             --                   --                        --                        True\n│    │    │    └─Conv2d: 4-7             [1, 1024, 7, 7]           [1, 2048, 4, 4]           2,097,152                   8.91%                   [1, 1]                    33,554,432                True\n│    │    │    └─BatchNorm2d: 4-8        [1, 2048, 4, 4]           [1, 2048, 4, 4]           4,096                       0.02%                   --                        4,096                     True\n│    │    └─ReLU: 3-158                  [1, 2048, 4, 4]           [1, 2048, 4, 4]           --                             --                   --                        --                        --\n│    └─Bottleneck: 2-15                  [1, 2048, 4, 4]           [1, 2048, 4, 4]           --                             --                   --                        --                        True\n│    │    └─Conv2d: 3-159                [1, 2048, 4, 4]           [1, 512, 4, 4]            1,048,576                   4.46%                   [1, 1]                    16,777,216                True\n│    │    └─BatchNorm2d: 3-160           [1, 512, 4, 4]            [1, 512, 4, 4]            1,024                       0.00%                   --                        1,024                     True\n│    │    └─ReLU: 3-161                  [1, 512, 4, 4]            [1, 512, 4, 4]            --                             --                   --                        --                        --\n│    │    └─Conv2d: 3-162                [1, 512, 4, 4]            [1, 512, 4, 4]            2,359,296                  10.03%                   [3, 3]                    37,748,736                True\n│    │    └─BatchNorm2d: 3-163           [1, 512, 4, 4]            [1, 512, 4, 4]            1,024                       0.00%                   --                        1,024                     True\n│    │    └─Identity: 3-164              [1, 512, 4, 4]            [1, 512, 4, 4]            --                             --                   --                        --                        --\n│    │    └─ReLU: 3-165                  [1, 512, 4, 4]            [1, 512, 4, 4]            --                             --                   --                        --                        --\n│    │    └─Identity: 3-166              [1, 512, 4, 4]            [1, 512, 4, 4]            --                             --                   --                        --                        --\n│    │    └─Conv2d: 3-167                [1, 512, 4, 4]            [1, 2048, 4, 4]           1,048,576                   4.46%                   [1, 1]                    16,777,216                True\n│    │    └─BatchNorm2d: 3-168           [1, 2048, 4, 4]           [1, 2048, 4, 4]           4,096                       0.02%                   --                        4,096                     True\n│    │    └─ReLU: 3-169                  [1, 2048, 4, 4]           [1, 2048, 4, 4]           --                             --                   --                        --                        --\n│    └─Bottleneck: 2-16                  [1, 2048, 4, 4]           [1, 2048, 4, 4]           --                             --                   --                        --                        True\n│    │    └─Conv2d: 3-170                [1, 2048, 4, 4]           [1, 512, 4, 4]            1,048,576                   4.46%                   [1, 1]                    16,777,216                True\n│    │    └─BatchNorm2d: 3-171           [1, 512, 4, 4]            [1, 512, 4, 4]            1,024                       0.00%                   --                        1,024                     True\n│    │    └─ReLU: 3-172                  [1, 512, 4, 4]            [1, 512, 4, 4]            --                             --                   --                        --                        --\n│    │    └─Conv2d: 3-173                [1, 512, 4, 4]            [1, 512, 4, 4]            2,359,296                  10.03%                   [3, 3]                    37,748,736                True\n│    │    └─BatchNorm2d: 3-174           [1, 512, 4, 4]            [1, 512, 4, 4]            1,024                       0.00%                   --                        1,024                     True\n│    │    └─Identity: 3-175              [1, 512, 4, 4]            [1, 512, 4, 4]            --                             --                   --                        --                        --\n│    │    └─ReLU: 3-176                  [1, 512, 4, 4]            [1, 512, 4, 4]            --                             --                   --                        --                        --\n│    │    └─Identity: 3-177              [1, 512, 4, 4]            [1, 512, 4, 4]            --                             --                   --                        --                        --\n│    │    └─Conv2d: 3-178                [1, 512, 4, 4]            [1, 2048, 4, 4]           1,048,576                   4.46%                   [1, 1]                    16,777,216                True\n│    │    └─BatchNorm2d: 3-179           [1, 2048, 4, 4]           [1, 2048, 4, 4]           4,096                       0.02%                   --                        4,096                     True\n│    │    └─ReLU: 3-180                  [1, 2048, 4, 4]           [1, 2048, 4, 4]           --                             --                   --                        --                        --\n├─SelectAdaptivePool2d: 1-9              [1, 2048, 4, 4]           [1, 2048]                 --                             --                   --                        --                        --\n│    └─AdaptiveAvgPool2d: 2-17           [1, 2048, 4, 4]           [1, 2048, 1, 1]           --                             --                   --                        --                        --\n│    └─Flatten: 2-18                     [1, 2048, 1, 1]           [1, 2048]                 --                             --                   --                        --                        --\n├─Linear: 1-10                           [1, 2048]                 [1, 10]                   20,490                      0.09%                   --                        20,490                    True\n=======================================================================================================================================================================================================================\nTotal params: 23,528,522\nTrainable params: 23,528,522\nNon-trainable params: 0
…
============================================================================\nLayer (type:depth-idx)                             Input Shape               Output Shape              Param #                   Param %                   Kernel Shape              Mult-Adds                 Trainable\n=================================================================================================================================================================================================================================\nResNetV2                                           [1, 3, 100, 100]          [1, 10]                   --                             --                   --                        --                        True\n├─Sequential: 1-1                                  [1, 3, 100, 100]          [1, 64, 25, 25]           --                             --                   --                        --                        True\n│    └─Conv2d: 2-1                                 [1, 3, 100, 100]          [1, 64, 50, 50]           9,408                       0.04%                   [7, 7]                    23,520,000                True\n│    └─MaxPool2d: 2-2                              [1, 64, 50, 50]           [1, 64, 25, 25]           --                             --                   3                         --                        --\n├─Sequential: 1-2                                  [1, 64, 25, 25]           [1, 2048, 4, 4]           --                             --                   --                        --                        True\n│    └─ResNetStage: 2-3                            [1, 64, 25, 25]           [1, 256, 25, 25]          --                             --                   --                        --                        True\n│    │    └─Sequential: 3-1                        [1, 64, 25, 25]           [1, 256, 25, 25]          --                             --                   --                        --                        True\n│    │    │    └─PreActBottleneck: 4-1             [1, 64, 25, 25]           [1, 256, 25, 25]          --                             --                   --                        --                        True\n│    │    │    │    └─BatchNormAct2d: 5-1          [1, 64, 25, 25]           [1, 64, 25, 25]           128                         0.00%                   --                        0                         True\n│    │    │    │    └─DownsampleConv: 5-2          [1, 64, 25, 25]           [1, 256, 25, 25]          16,384                      0.07%                   --                        10,240,000                True\n│    │    │    │    └─Conv2d: 5-3                  [1, 64, 25, 25]           [1, 64, 25, 25]           4,096                       0.02%                   [1, 1]                    2,560,000                 True\n│    │    │    │    └─BatchNormAct2d: 5-4          [1, 64, 25, 25]           [1, 64, 25, 25]           128                         0.00%                   --                        0                         True\n│    │    │    │    └─Conv2d: 5-5                  [1, 64, 25, 25]           [1, 64, 25, 25]           36,864                      0.16%                   [3, 3]                    23,040,000                True\n│    │    │    │    └─BatchNormAct2d: 5-6          [1, 64, 25, 25]           [1, 64, 25, 25]           128                         0.00%                   --                        0                         True\n│    │    │    │    └─Conv2d: 5-7                  [1, 64, 25, 25]           [1, 256, 25, 25]          16,384                      0.07%                   [1, 1]                    10,240,000                True\n│    │    │    │    └─Identity: 5-8                [1, 256, 25, 25]          [1, 256, 25, 25]          --                             --                   --                        --                        --\n│    │    │    └─PreActBottleneck: 4-2             [1, 256, 25, 25]          [1, 256, 25, 25]          --                             --                   --                        --                        True\n│    │    │    │    └─BatchNormAct2d: 5-9          [1, 256, 25, 25]          [1, 256, 25, 25]          512                         0.00%                   --                        0                         True\n│    │    │    │    └─Conv2d: 5-10                 [1, 256, 25, 25]          [1, 64, 25, 25]           16,384                      0.07%                   [1, 1]                    10,240,000                True\n│    │    │    │    └─BatchNormAct2d: 5-11         [1, 64, 25, 25]           [1, 64, 25, 25]           128                         0.00%                   --                        0                         True\n│    │    │    │    └─Conv2d: 5-12                 [1, 64, 25, 25]           [1, 64, 25, 25]           36,864                      0.16%                   [3, 3]                    23,040,000                True\n│    │    │    │    └─BatchNormAct2d: 5-13         [1, 64, 25, 25]           [1, 64, 25, 25]           128                         0.00%                   --                        0                         True\n│    │    │    │    └─Conv2d: 5-14                 [1, 64, 25, 25]           [1, 256, 25, 25]          16,384                      0.07%                   [1, 1]                    10,240,000                True\n│    │    │    │    └─Identity: 5-15               [1, 256, 25, 25]          [1, 256, 25, 25]          --                             --                   --                        --                        --\n│    │    │    └─PreActBottleneck: 4-3             [1, 256, 25, 25]          [1, 256, 25, 25]          --                             --                   --                        --                        True\n│    │    │    │    └─BatchNormAct2d: 5-16         [1, 256, 25, 25]          [1, 256, 25, 25]          512                         0.00%                   --                        0                         True\n│    │    │    │    └─Conv2d: 5-17                 [1, 256, 25, 25]          [1, 64, 25, 25]           16,384                      0.07%                   [1, 1]                    10,240,000                True\n│    │    │    │    └─BatchNormAct2d: 5-18         [1, 64, 25, 25]           [1, 64, 25, 25]           128                         0.00%                   --                        0                         True\n│    │    │    │    └─Conv2d: 5-19                 [1, 64, 25, 25]           [1, 64, 25, 25]           36,864                      0.16%                   [3, 3]                    23,040,000                True\n│    │    │    │    └─BatchNormAct2d: 5-20         [1, 64, 25, 25]           [1, 64, 25, 25]           128                         0.00%                   --                        0                         True\n│    │    │    │    └─Conv2d: 5-21                 [1, 64, 25, 25]           [1, 256, 25, 25]          16,384                      0.07%                   [1, 1]                    10,240,000                True\n│    │    │    │    └─Identity: 5-22               [1, 256, 25, 25]          [1, 256, 25, 25]          --                             --                   --                        --                        --\n│    └─ResNetStage: 2-4                            [1, 256, 25, 25]          [1, 512, 13, 13]          --                             --                   --                        --                        True\n│    │    └─Sequential: 3-2                        [1, 256, 25, 25]          [1, 512, 13, 13]          --                             --                   --                        --                        True\n│    │    │    └─PreActBottleneck: 4-4             [1, 256, 25, 25]          [1, 512, 13, 13]          --                             --                   --                        --                        True\n│    │    │    │    └─BatchNormAct2d: 5-23         [1, 256, 25, 25]          [1, 256, 25, 25]          512                         0.00%                   --                        0                         True\n│    │    │    │    └─DownsampleConv: 5-24         [1, 256, 25, 25]          [1, 512, 13, 13]          131,072                     0.56%                   --                        22,151,168                True\n│    │    │    │    └─Conv2d: 5-25                 [1, 256, 25, 25]          [1, 128, 25, 25]          32,768                      0.14%                   [1, 1]                    20,480,000                True\n│    │    │    │    └─BatchNormAct2d: 5-26         [1, 128, 25, 25]          [1, 128, 25, 25]          256                         0.00%                   --                        0                         True\n│    │    │    │    └─Conv2d: 5-27                 [1, 128, 25, 25]          [1, 128, 13, 13]          147,456                     0.63%                   [3, 3]                    24,920,064                True\n│    │    │    │    └─BatchNormAct2d: 5-28         [1, 128, 13, 13]          [1, 128, 13, 13]          256                         0.00%                   --                        0                         True\n│    │    │    │    └─Conv2d: 5-29                 [1, 128, 13, 13]          [1, 512, 13, 13]          65,536                      0.28%                   [1, 1]                    11,075,584                True\n│    │    │    │    └─Identity: 5-30               [1, 512, 13, 13]          [1, 512, 13, 13]          --                             --                   --                        --                        --\n│    │    │    └─PreActBottleneck: 4-5             [1, 512, 13, 13]          [1, 512, 13, 13]          --                             --                   --                        --                        True\n│    │    │    │    └─BatchNormAct2d: 5-31         [1, 512, 13, 13]          [1, 512, 13, 13]          1,024                       0.00%                   --                        0                         True\n│    │    │    │    └─Conv2d: 5-32                 [1, 512, 13, 13]          [1, 128, 13, 13]          65,536                      0.28%                   [1, 1]                    11,075,584                True\n│    │    │    │    └─BatchNormAct2d: 5-33         [1, 128, 13, 13]          [1, 128, 13, 13]          256                         0.00%                   --                        0                         True\n│    │    │    │    └─Conv2d: 5-34                 [1, 128, 13, 13]          [1, 128, 13, 13]          147,456                     0.63%                   [3, 3]                    24,920,064                True\n│    │    │    │    └─BatchNormAct2d: 5-35         [1, 128, 13, 13]          [1, 128, 13, 13]          256                         0.00%                   --                        0                         True\n│    │    │    │    └─Conv2d: 5-36                 [1, 128, 13, 13]          [1, 512, 13, 13]          65,536                      0.28%                   [1, 1]                    11,075,584                True\n│    │    │    │    └─Identity: 5-37               [1, 512, 13, 13]          [1, 512, 13, 13]          --                             --                   --                        --                        --\n│    │    │    └─PreActBottleneck: 4-6             [1, 512, 13, 13]          [1, 512, 13, 13]          --                             --                   --                        --                        True\n│    │    │    │    └─BatchNormAct2d: 5-38         [1, 512, 13, 13]          [1, 512, 13, 13]          1,024                       0.00%                   --                        0                         True\n│    │    │    │    └─Conv2d: 5-39                 [1, 512, 13, 13]          [1, 128, 13, 13]          65,536                      0.28%                   [1, 1]                    11,075,584                True\n│    │    │    │    └─BatchNormAct2d: 5-40         [1, 128, 13, 13]          [1, 128, 13, 13]          256                         0.00%                   --                        0                         True\n│    │    │    │    └─Conv2d: 5-41                 [1, 128, 13, 13]          [1, 128, 13, 13]          147,456                     0.63%                   [3, 3]                    24,920,064                True\n│    │    │    │    └─BatchNormAct2d: 5-42         [1, 128, 13, 13]          [1, 128, 13, 13]          256                         0.00%                   --                        0                         True\n│    │    │    │    └─Conv2d: 5-43                 [1, 128, 13, 13]          [1, 512, 13, 13]          65,536                      0.28%                   [1, 1]                    11,075,584                True\n│    │    │    │    └─Identity: 5-44               [1, 512, 13, 13]          [1, 512, 13, 13]          --                             --                   --                        --                        --\n│    │    │    └─PreActBottleneck: 4-7             [1, 512, 13, 13]          [1, 512, 13, 13]          --                             --                   --                        --                        True\n│    │    │    │    └─BatchNormAct2d: 5-45         [1, 512, 13, 13]          [1, 512, 13, 13]          1,024                       0.00%                   --                        0                         True\n│    │    │    │    └─Conv2d: 5-46                 [1, 512, 13, 13]          [1, 128, 13, 13]          65,536                      0.28%                   [1, 1]                    11,075,584                True\n│    │    │    │    └─BatchNormAct2d: 5-47         [1, 128, 13, 13]          [1, 128, 13, 13]          256                         0.00%                   --                        0                         True\n│    │    │    │    └─Conv2d: 5-48                 [1, 128, 13, 13]          [1, 128, 13, 13]          147,456                     0.63%                   [3, 3]                    24,920,064                True\n│    │    │    │    └─BatchNormAct2d: 5-49         [1, 128, 13, 13]          [1, 128, 13, 13]          256                         0.00%                   --                        0                         True\n│    │    │    │    └─Conv2d: 5-50                 [1, 128, 13, 13]          [1, 512, 13, 13]          65,536                      0.28%                   [1, 1]                    11,075,584                True\n│    │    │    │    └─Identity: 5-51               [1, 512, 13, 13]          [1, 512, 13, 13]          --                             --                   --                        --                        --\n│    └─ResNetStage: 2-5                            [1, 512, 13, 13]          [1, 1024, 7, 7]           --                             --                   --                        --                        True\n│    │    └─Sequential: 3-3                        [1, 512, 13, 13]          [1, 1024, 7, 7]           --                             --                   --                        --                        True\n│    │    │    └─PreActBottleneck: 4-8             [1, 512, 13, 13]          [1, 1024, 7, 7]           --                             --                   --                        --                        True\n│    │    │    │    └─BatchNormAct2d: 5-52         [1, 512, 13, 13]          [1, 512, 13, 13]          1,024                       0.00%                   --                        0                         True\n│    │    │    │    └─DownsampleConv: 5-53         [1, 512, 13, 13]          [1, 1024, 7, 7]           524,288                     2.23%                   --                        25,690,112                True\n│    │    │    │    └─Conv2d: 5-54                 [1, 512, 13, 13]          [1, 256, 13, 13]          131,072                     0.56%                   [1, 1]                    22,151,168                True\n│    │    │    │    └─BatchNormAct2d: 5-55         [1, 256, 13, 13]          [1, 256, 13, 13]          512                         0.00%                   --                        0                         True\n│    │    │    │    └─Conv2d: 5-56                 [1, 256, 13, 13]          [1, 256, 7, 7]            589,824                     2.51%                   [3, 3]                    28,901,376                True\n│    │    │    │    └─BatchNormAct2d: 5-57         [1, 256, 7, 7]            [1, 256, 7, 7]            512                         0.00%                   --                        0                         True\n│    │    │    │    └─Conv2d: 5-58                 [1, 256, 7, 7]            [1, 1024, 7, 7]           262,144                     1.11%                   [1, 1]                    12,845,056                True\n│    │    │    │    └─Identity: 5-59               [1, 1024, 7, 7]           [1, 1024, 7, 7]           --                             --                   --                        --                        --\n│    │    │    └─PreActBottleneck: 4-9             [1, 1024, 7, 7]           [1, 1024, 7, 7]           --                             --                   --                        --                        True\n│    │    │    │    └─BatchNormAct2d: 5-60         [1, 1024, 7, 7]           [1, 1024, 7, 7]           2,048                       0.01%                   --                        0                         True\n│    │    │    │    └─Conv2d: 5-61                 [1, 1024, 7, 7]           [1, 256, 7, 7]            262,144                     1.11%                   [1, 1]                    12,845,056                True\n│    │    │    │    └─BatchNormAct2d: 5-62         [1, 256, 7, 7]            [1, 256, 7, 7]            512                         0.00%                   --                        0                         True\n│    │    │    │    └─Conv2d: 5-63                 [1, 256, 7, 7]            [1, 256, 7, 7]            589,824                     2.51%                   [3, 3]                    28,901,376                True\n│    │    │    │    └─BatchNormAct2d: 5-64         [1, 256, 7, 7]            [1, 256, 7, 7]            512                         0.00%                   --                        0                         True\n│    │    │    │    └─Conv2d: 5-65                 [1, 256, 7, 7]            [1, 1024, 7, 7]           262,144                     1.11%                   [1, 1]                    12,845,056                True\n│    │    │    │    └─Identity: 5-66               [1, 1024, 7, 7]           [1, 1024, 7, 7]           --                             --                   --                        --                        --\n│    │    │    └─PreActBottleneck: 4-10            [1, 1024, 7, 7]           [1, 1024, 7, 7]           --                             --                   --                        --                        True\n│    │    │    │    └─BatchNormAct2d: 5-67         [1, 1024, 7, 7]           [1, 1024, 7, 7]           2,048                       0.01%                   --                        0                         True\n│    │    │    │    └─Conv2d: 5-68                 [1, 1024, 7, 7]           [1, 256, 7, 7]            262,144                     1.11%                   [1, 1]                    12,845,056                True\n│    │    │    │    └─BatchNormAct2d: 5-69         [1, 256, 7, 7]            [1, 256, 7, 7]            512                         0.00%                   --                        0                         True\n│    │    │    │    └─Conv2d: 5-70                 [1, 256, 7, 7]            [1, 256, 7, 7]            589,824                     2.51%                   [3, 3]                    28,901,376                True\n│    │    │    │    └─BatchNormAct2d: 5-71         [1, 256, 7, 7]            [1, 256, 7, 7]            512                         0.00%                   --                        0                         True\n│    │    │    │    └─Conv2d: 5-72                 [1, 256, 7, 7]            [1, 1024, 7, 7]           262,144                     1.11%                   [1, 1]                    12,845,056                True\n│    │    │    │    └─Identity: 5-73               [1, 1024, 7, 7]           [1, 1024, 7, 7]           --                             --                   --                        --                        --\n│    │    │    └─PreActBottleneck: 4-11            [1, 1024, 7, 7]           [1, 1024, 7, 7]           --                             --                   --                        --                        True\n│    │    │    │    └─BatchNormAct2d: 5-74         [1, 1024, 7, 7]           [1, 1024, 7, 7]           2,048                       0.01%                   --                        0                         True\n│    │    │    │    └─Conv2d: 5-75                 [1, 1024, 7, 7]           [1, 256, 7, 7]            262,144                     1.11%                   [1, 1]                    12,845,056                True\n│    │    │    │    └─BatchNormAct2d: 5-76         [1, 256, 7, 7]            [1, 256, 7, 7]            512                         0.00%                   --                        0                         True\n│    │    │    │    └─Conv2d: 5-77                 [1, 256, 7, 7]            [1, 256, 7, 7]            589,824                     2.51%                   [3, 3]                    28,901,376                True\n│    │    │    │    └─BatchNormAct2d: 5-78         [1, 256, 7, 7]            [1, 256, 7, 7]            512                         0.00%                   --                        0                         True\n│    │    │    │    └─Conv2d: 5-79                 [1, 256, 7, 7]            [1, 1024, 7, 7]           262,144                     1.11%                   [1, 1]                    12,845,056                True\n│    │    │    │    └─Identity: 5-80               [1, 1024, 7, 7]           [1, 1024, 7, 7]           --                             --                   --                        --                        --\n│    │    │    └─PreActBottleneck: 4-12            [1, 1024, 7, 7]           [1, 1024, 7, 7]           --                             --                   --                        --                        True\n│    │    │    │    └─BatchNormAct2d: 5-81         [1, 1024, 7, 7]           [1, 1024, 7, 7]           2,048                       0.01%                   --                        0                         True\n│    │    │    │    └─Conv2d: 5-82                 [1, 1024, 7, 7]           [1, 256, 7, 7]            262,144                     1.11%                   [1, 1]                    12,845,056                True\n│    │    │    │    └─BatchNormAct2d: 5-83         [1, 256, 7, 7]            [1, 256, 7, 7]            512                         0.00%                   --                        0                         True\n│    │    │    │    └─Conv2d: 5-84                 [1, 256, 7, 7]            [1, 256, 7, 7]            589,824                     2.51%                   [3, 3]                    28,901,376                True\n│    │    │    │    └─BatchNormAct2d: 5-85         [1, 256, 7, 7]            [1, 256, 7, 7]            512                         0.00%                   --                        0                         True\n│    │    │    │    └─Conv2d: 5-86                 [1, 256, 7, 7]            [1, 1024, 7, 7]           262,144                     1.11%                   [1, 1]                    12,845,056                True\n│    │    │    │    └─Identity: 5-87               [1, 1024, 7, 7]           [1, 1024, 7, 7]           --                             --                   --                        --                        --\n│    │    │    └─PreActBottleneck: 4-13            [1, 1024, 7, 7]           [1, 1024, 7, 7]           --                             --                   --                        --                        True\n│    │    │    │    └─BatchNormAct2d: 5-88         [1, 1024, 7, 7]           [1, 1024, 7, 7]           2,048                       0.01%                   --                        0                         True\n│    │    │    │    └─Conv2d: 5-89                 [1, 1024, 7, 7]           [1, 256, 7, 7]            262,144                     1.11%                   [1, 1]                    12,845,056                True\n│    │    │    │    └─BatchNormAct2d: 5-90         [1, 256, 7, 7]            [1, 256, 7, 7]            512                         0.00%                   --                        0                         True\n│    │    │    │    └─Conv2d: 5-91                 [1, 256, 7, 7]            [1, 256, 7, 7]            589,824                     2.51%                   [3, 3]                    28,901,376                True\n│    │    │    │    └─BatchNormAct2d: 5-92         [1, 256, 7, 7]            [1, 256, 7, 7]            512                         0.00%                   --                        0                         True\n│    │    │    │    └─Conv2d: 5-93                 [1, 256, 7, 7]            [1, 1024, 7, 7]           262,144                     1.11%                   [1, 1]                    12,845,056                True\n│    │    │    │    └─Identity: 5-94               [1, 1024, 7, 7]           [1, 1024, 7, 7]           --                             --                   --                        --                        --\n│    └─ResNetStage: 2-6                            [1, 1024, 7, 7]           [1, 2048, 4, 4]           --                             --                   --                        --                        True\n│    │    └─Sequential: 3-4                        [1, 1024, 7, 7]           [1, 2048, 4, 4]           --                             --                   --                        --                        True\n│    │    │    └─PreActBottleneck: 4-14            [1, 1024, 7, 7]           [1, 2048, 4, 4]           --                             --                   --                        --                        True\n│    │    │    │    └─BatchNormAct2d: 5-95         [1, 1024, 7, 7]           [1, 1024, 7, 7]           2,048                       0.01%                   --                        0                         True\n│    │    │    │    └─DownsampleConv: 5-96         [1, 1024, 7, 7]           [1, 2048, 4, 4]           2,097,152                   8.92%                   --                        33,554,432                True\n│    │    │    │    └─Conv2d: 5-97                 [1, 1024, 7, 7]           [1, 512, 7, 7]            524,288                     2.23%                   [1, 1]                    25,690,112                True\n│    │    │    │    └─BatchNormAct2d: 5-98         [1, 512, 7, 7]            [1, 512, 7, 7]            1,024                       0.00%                   --                        0                         True\n│    │    │    │    └─Conv2d: 5-99                 [1, 512, 7, 7]            [1, 512, 4, 4]            2,359,296                  10.03%                   [3, 3]                    37,748,736                True\n│    │    │    │    └─BatchNormAct2d: 5-100        [1, 512, 4, 4]            [1, 512, 4, 4]            1,024                       0.00%                   --                        0                         True\n│    │    │    │    └─Conv2d: 5-101                [1, 512, 4, 4]            [1, 2048, 4, 4]           1,048,576                   4.46%                   [1, 1]                    16,777,216                True\n│    │    │    │    └─Identity: 5-102              [1, 2048, 4, 4]           [1, 2048, 4, 4]           --                             --                   --                        --                        --\n│    │    │    └─PreActBottleneck: 4-15            [1, 2048, 4, 4]           [1, 2048, 4, 4]           --                             --                   --                        --                        True\n│    │    │    │    └─BatchNormAct2d: 5-103        [1, 2048, 4, 4]           [1, 2048, 4, 4]           4,096                       0.02%                   --                        0                         True\n│    │    │    │    └─Conv2d: 5-104                [1, 2048, 4, 4]           [1, 512, 4, 4]            1,048,576                   4.46%                   [1, 1]                    16,777,216                True\n│    │    │    │    └─BatchNormAct2d: 5-105        [1, 512, 4, 4]            [1, 512, 4, 4]            1,024                       0.00%                   --                        0                         True\n│    │    │    │    └─Conv2d: 5-106                [1, 512, 4, 4]            [1, 512, 4, 4]            2,359,296                  10.03%                   [3, 3]                    37,748,736                True\n│    │    │    │    └─BatchNormAct2d: 5-107        [1, 512, 4, 4]            [1, 512, 4, 4]            1,024                       0.00%                   --                        0                         True\n│    │    │    │    └─Conv2d: 5-108                [1, 512, 4, 4]            [1, 2048, 4, 4]           1,048,576                   4.46%                   [1, 1]                    16,777,216                True\n│    │    │    │    └─Identity: 5-109              [1, 2048, 4, 4]           [1, 2048, 4, 4]           --                             --                   --                        --                        --\n│    │    │    └─PreActBottleneck: 4-16            [1, 2048, 4, 4]           [1, 2048, 4, 4]           --                             --                   --                        --                        True\n│    │    │    │    └─BatchNormAct2d: 5-110        [1, 2048, 4, 4]           [1, 2048, 4, 4]           4,096                       0.02%                   --                        0                         True\n│    │    │    │    └─Conv2d: 5-111                [1, 2048, 4, 4]           [1, 512, 4, 4]            1,048,576                   4.46%                   [1, 1]                    16,777,216                True\n│    │    │    │    └─BatchNormAct2d: 5-112        [1, 512, 4, 4]            [1, 512, 4, 4]            1,024                       0.00%                   --                        0                         True\n│    │    │    │    └─Conv2d: 5-113                [1, 512, 4, 4]            [1, 512, 4, 4]            2,359,296                  10.03%                   [3, 3]                    37,748,736                True\n│    │    │    │    └─BatchNormAct2d: 5-114        [1, 512, 4, 4]            [1, 512, 4, 4]            1,024                       0.00%                   --                        0                         True\n│    │    │    │    └─Conv2d: 5-115                [1, 512, 4, 4]            [1, 2048, 4, 4]           1,048,576                   4.46%                   [1, 1]                    16,777,216                True\n│    │    │    │    └─Identity: 5-116              [1, 2048, 4, 4]           [1, 2048, 4, 4]           --                             --                   --                        --                        --\n├─BatchNormAct2d: 1-3                              [1, 2048, 4, 4]           [1, 2048, 4, 4]           4,096                       0.02%                   --                        --                        True\n│    └─Identity: 2-7                               [1, 2048, 4, 4]           [1, 2048, 4, 4]           --                             --                   --                        --                        --\n│    └─ReLU: 2-8                                   [1, 2048, 4, 4]           [1, 2048, 4, 4]           --                             --                   --                        --                        --\n├─ClassifierHead: 1-4                              [1, 2048, 4, 4]           [1, 10]                   --                             --                   --                        --                        True\n│    └─SelectAdaptivePool2d: 2-9                   [1, 2048, 4, 4]           [1, 2048, 1, 1]           --                             --                   --                        --                        --\n│    │    └─AdaptiveAvgPool2d: 3-5                 [1, 2048, 4, 4]           [1, 2048, 1, 1]           --                             --                   --                        --                        --\n│    │    └─Identity: 3-6                          [1, 2048, 1, 1]           [1, 2048, 1, 1]           --                             --                   --                        --                        --\n│    └─Dropout: 2-10                               [1, 2048, 1, 1]           [1, 2048, 1, 1]           --                             --                   --                        --                        --\n│    └─Conv2d: 2-11                                [1, 2048, 1, 1]           [1, 10, 1, 1]             20,490                      0.09%                   [1, 1]                    20,490                    True\n│    └─Flatten: 2-12                               [1, 10, 1, 1]             [1, 10]                   --                             --                   --                        --                        --\n=================================================================================================================================================================================================================================\nTotal params: 23,520,842\nTrainable params: 23,520,842\nNon-trainab
…
